results/weights/actor_critic_512_entropy_coef_re.pth (torch, 50078 bytes, 8 tensors)

actor_log_std f4 [2]
000000 0c 3d 93 c0 70 35 93 c0
       -4.601202 -4.600273

shared_layers.0.weight f4 [128, 24]
000000 5e 2b 97 3e b2 99 57 bf a7 6e c3 3d 7a 4f b9 3e
       0.29525274 -0.84218895 0.0954259 0.36193448
000010 87 43 72 3e 83 cc 7b 3e e5 b0 33 3d 7c ae 96 3e
       0.23658572 0.24589734 0.04386987 0.29429996
000020 6a 67 5a 3e e9 d1 88 bf c2 69 7a 3e 2d 22 0a 3f
       0.21328512 -1.068906 0.24454406 0.539584
000030 cf 20 f1 3e 28 cd c1 3e 66 85 29 3e c9 f0 f1 3e
       0.47095343 0.37851834 0.16554794 0.47254017
000040 85 02 66 3e 97 bf 19 bf bb c4 04 bd 8b 19 10 3f
       0.22461899 -0.6005797 -0.03241418 0.56288975
000050 00 15 82 bd 26 8c c6 3e 82 10 a4 bc b1 72 25 3f
       -0.06351662 0.387788 -0.020027403 0.6462813
000060 18 b1 63 be 84 ef 37 bf 5c 4a 92 be a1 54 40 be
       -0.22235525 -0.71849847 -0.28572357 -0.18782283
000070 b0 7f 8d 3e 9a 52 eb be e0 35 33 bd 37 38 74 be
       0.2763648 -0.45961457 -0.04375255 -0.2384957
000080 3c 15 0d 3e e5 ce 2c bf d3 b6 87 3d a9 81 91 3e
       0.13777632 -0.67503196 0.06626668 0.28419235
000090 f6 8f b2 3e b1 90 9a be bd 95 1e 3e 7d e4 bf 3d
       0.34875458 -0.30188516 0.15486808 0.093697526
0000a0 fd 0f 6b 3d ba 93 53 bf 95 24 ad 3d 8d c1 0e 3f
       0.057388294 -0.8264729 0.08454243 0.55764085
0000b0 3e 2b 19 3f a7 39 fe be e3 8a ee 3d da df d2 3e
       0.5983161 -0.4965336 0.11647584 0.4118641
0000c0 ad 2e 69 3a 60 7a 30 3e ff 75 28 be f5 ff f6 bd
       0.00088952 0.17234182 -0.16451262 -0.12060539
0000d0 2f 62 08 bf b0 04 af 3c 88 51 c5 3d 70 57 2f 3d
       -0.53274816 0.02136454 0.096346915 0.042807996
0000e0 ab 4b 8a bd d9 40 64 3e c4 1b 92 3e 09 73 25 bd
       -0.06752714 0.22290362 0.28536808 -0.04039291
0000f0 ce e1 ab be 95 f9 c2 be cb 0d 41 3e db a2 0c 3d
       -0.33570713 -0.3808104 0.18852918 0.034335
000100 2a f3 7f bd 36 87 b0 3e 90 9f 37 3d d2 86 29 be
       -0.06248776 0.34478158 0.044829905 -0.16555336
000110 65 35 82 be 72 eb 1c bf 8e 27 72 3d 5e 27 c0 3c
       -0.25431362 -0.6129676 0.059119754 0.023456272
000120 e5 29 d0 3e e1 98 13 3e 9b 2d e0 bd 96 c9 f5 be
       0.40656963 0.14413787 -0.109461986 -0.4800536
000130 26 7b 8e 3c 7c 67 29 be 50 16 2a 3e 5d 55 1a be
       0.017392706 -0.16543382 0.16610074 -0.15071626
000140 8a e4 06 3d 0c 25 d3 3d ea 0c 4d 3e a0 96 fb be
       0.032932796 0.103098005 0.20024458 -0.49138355
000150 9c 4f 4c 3e 1c ab b1 be 96 b8 55 3e 4e 47 11 bf
       0.19952244 -0.3470086 0.20871195 -0.5674943
000160 26 c0 44 bd 9e 8f 54 3c 39 23 00 3e 26 aa c0 be
       -0.04803481 0.012973694 0.12513436 -0.37629813
000170 8f 30 8f be a0 9a ac bd 49 3e 87 bd 8c cd dd be
       -0.27966735 -0.0842793 -0.06603677 -0.43320882
000180 42 3e 17 3e 24 72 00 bf 10 50 7f be 77 db 17 bf
       0.14769843 -0.50174165 -0.24932885 -0.5931925
000190 49 7c c9 bd 77 f2 04 bf 28 c1 50 be 65 3a 0b bf
       -0.09838159 -0.5193247 -0.20386183 -0.5438598
0001a0 f6 ca 30 bd ea 3e 4e bf b8 63 a5 be 29 23 21 bf
       -0.04316231 -0.8056475 -0.32302642 -0.62944275
0001b0 3e 62 57 be c0 87 2f bf 45 0b 5e 3d 53 f7 f4 be
       -0.2103357 -0.68566513 0.054209966 -0.47844943
0001c0 26 27 22 3e 29 0b 5c bf 24 26 70 3d 58 77 13 bf
       0.15835246 -0.8595453 0.058630124 -0.5760398
0001d0 89 0f 53 bd 3d c0 4b bf 28 80 d6 3d a2 5a 21 bf
       -0.051528487 -0.7959021 0.104736626 -0.6302892
0001e0 64 9a ef bc 30 ab 3e bf 86 42 1c bd 64 ac ab 3e
       -0.029248424 -0.7447996 -0.03814938 0.3352996
0001f0 6e 7c a4 be 58 5c 6d bd ed 3e c0 bd e0 02 a0 3e
       -0.32126182 -0.057949394 -0.09387002 0.31252193
000200 e2 e1 8c 3e 89 c8 00 bf f9 ab 99 3e 08 66 4f 3e
       0.27516085 -0.5030599 0.30014017 0.20253766
000210 1b 5d af be f5 28 10 3e 93 ef 8b 3d 37 99 78 3d
       -0.3425072 0.14078124 0.068328045 0.060692992
000220 53 23 26 be c1 47 53 bf 18 84 65 3e a5 cb d6 3d
       -0.16224413 -0.8253136 0.22413671 0.10488061
000230 64 67 28 bf d8 6b f4 3d 6f 74 a2 3e a0 ea bf b9
       -0.6578276 0.11934632 0.31729457 -0.00036605168
000240 60 e8 3c 3c eb cd 15 3d c5 f6 49 3d d5 45 54 be
       0.011530012 0.03657333 0.049307603 -0.20729764
000250 f7 d8 77 3e 78 46 12 bf f6 33 9a bb 8d 75 eb be
       0.2420386 -0.57138777 -0.0047059013 -0.45988122
000260 bd 21 f5 bc fe 86 a2 be f3 2f 9c 3d 16 94 d2 be
       -0.029923314 -0.31743616 0.07626333 -0.41128606
000270 41 41 6b 3e 1e 8e bd be dc 74 31 bd 06 60 be be
       0.22974111 -0.3702249 -0.043324336 -0.37182635
000280 d0 e6 61 3e 77 dc 91 bd 67 ee 26 3e 82 08 c9 3d
       0.22060704 -0.071221285 0.16301881 0.09816076
000290 01 72 9b 3e 2d 01 1c bf c5 2c 31 3d 6f 21 e8 3e
       0.30360416 -0.60939294 0.043255586 0.45338008
0002a0 c1 72 1e be 0e bf 45 3d 87 e9 f8 bd e3 0e 18 bf
       -0.15473463 0.048277907 -0.12153917 -0.59397715
0002b0 62 eb 5b be 71 ed ae 3e f2 eb 09 be 91 75 27 bf
       -0.2147651 0.34165528 -0.13468912 -0.6541377
0002c0 97 52 b7 be 93 4c f4 3d 4d 19 8a 3e c3 e5 ee be
       -0.358052 0.11928668 0.26972428 -0.4665967
0002d0 10 45 98 be 75 77 de 3e 1a 4b 18 3e 63 b9 b1 be
       -0.2974019 0.43450513 0.14872399 -0.3471175
0002e0 e2 bd aa bd b7 fe 28 bd f8 1e 30 3e 17 08 01 bf
       -0.083369985 -0.04125854 0.17199314 -0.5040297
0002f0 f8 a6 bc be 6b dc 82 3e 7b 31 74 3d 43 6b 07 bf
       -0.36846137 0.2555879 0.0596175 -0.52898043
000300 87 a9 89 3c 9e 4c 8f 3e b5 91 01 be 13 3f f8 be
       0.01680447 0.27988142 -0.12653239 -0.48485622
000310 c7 29 90 bd 0b 29 70 be 64 7e 6a bd d3 8c c3 be
       -0.070392184 -0.23453157 -0.05724944 -0.38193378
000320 d0 ac 70 be 73 38 0b be 66 88 2b 3e 71 60 0d bd
       -0.23503423 -0.13595752 0.1675125 -0.0345158
000330 28 7a b5 3c b6 75 3c bf 72 61 04 be 0a fe 97 be
       0.022152975 -0.7361711 -0.12927797 -0.29686004
000340 5d 43 12 be 4d 07 54 ba f3 4e 81 3d 16 78 73 3d
       -0.1428351 -0.0008088246 0.063138865 0.059440695
000350 6a 73 9b 3c 9c 65 8d bf d3 3b cb bd 8f 8b 26 3e
       0.018975932 -1.1046634 -0.0992352 0.16264175
000360 c3 00 94 3d b6 cd 82 be ff 8d 16 3e 87 cc 1d bf
       0.07226708 -0.2554757 0.14702605 -0.6164021
000370 67 8a bf 3d a2 02 86 bc 17 c3 f7 bc fb 5d 14 bf
       0.0935257 -0.016358677 -0.030244393 -0.579559
000380 a4 57 ff bd f0 48 cd bd 3c 91 c9 3e 91 37 7a 3d
       -0.12467888 -0.10023677 0.39368618 0.06108815
000390 5b 9a 3e 3e 73 5d 14 bf c5 f7 95 3d 04 3d 0e 3e
       0.1861357 -0.5795509 0.07322649 0.13890463
0003a0 56 97 8a 3e 39 7b 67 3d 03 e8 87 3e 92 14 a9 3e
       0.27068585 0.056514 0.26544198 0.33023506
0003b0 72 de e1 3e a9 fc 55 bf 4b 65 86 bc 18 82 b3 3d
       0.44115025 -0.83588654 -0.016405722 0.08765048
0003c0 1a fd 18 3e ca c3 11 bf 28 56 9c 3d 14 bd 07 bf
       0.149403 -0.56939375 0.076336205 -0.53022885
0003d0 1a a0 02 bf b3 bd c6 be 0a b1 82 bc 23 aa b0 be
       -0.51025546 -0.38816604 -0.01595356 -0.34504804
0003e0 d7 e8 03 be 3d 73 09 bf bc c5 d1 bd c7 61 56 bf
       -0.1288179 -0.53691465 -0.10242793 -0.83742946
0003f0 6e 86 ee be 98 50 25 bf 22 8f cb bd f1 cb 61 bf
       -0.46586937 -0.645761 -0.0993941 -0.88201815

shared_layers.0.bias f4 [128]
000000 d5 6c 95 bd f5 4d f8 3d ca d5 28 3c b2 86 21 be
       -0.07296149 0.12124244 0.010304878 -0.15774038
000010 42 1a 22 be 25 74 51 3e 3c 79 17 be d5 62 35 3e
       -0.15830329 0.20454462 -0.14792341 0.17713483
000020 a2 ee 6f 3d 87 ea 95 bd 20 f5 43 3e 85 37 4a be
       0.058577187 -0.07320123 0.19136477 -0.19747742
000030 6b 5d 6b be c2 7d c5 be 6b ed 8b 3e d0 25 ab bd
       -0.22984855 -0.38572508 0.27329573 -0.083568215
000040 c2 c0 a1 be 01 ec c3 bd 71 c6 77 3e d1 90 f4 be
       -0.31592375 -0.095664985 0.24196793 -0.47766736
000050 d6 d1 c7 be 75 b1 c8 3e 39 e5 b6 be 7b 57 b2 3e
       -0.3902728 0.3919789 -0.35721758 0.34832367
000060 aa e9 bc 3d d1 09 a4 3e f3 ec e2 be ff 8c 35 be
       0.092242554 0.3203874 -0.44321403 -0.17729567
000070 08 aa 0e 3e ce d7 90 be bf 76 d2 be a8 70 6f be
       0.1393205 -0.28289646 -0.4110622 -0.23382819
000080 e2 bb b6 3b a0 c6 97 3b 8a 16 37 bd 68 7b d4 3d
       0.0055765966 0.0046318322 -0.04469923 0.103751004
000090 dd fc 4d be c1 3f cc be 3c b1 70 be f6 38 20 bd
       -0.20115991 -0.3989239 -0.2350511 -0.039116822
0000a0 ff 47 d2 3d d7 dc af be a4 5d c3 3d 0c a3 91 be
       0.102676384 -0.34348175 0.09539345 -0.28444707
0000b0 cc 2b 0c bf 41 02 a7 3d 9d 9d 77 3e 2d d4 03 3d
       -0.5475433 0.08154727 0.24181218 0.03218477
0000c0 2d 1d 8d 3b 04 15 af bd b0 77 47 be e4 84 ad be
       0.0043064565 -0.0854893 -0.19479251 -0.3389045
0000d0 16 1f 70 3e 6b 1c 50 be 4b 86 a5 bd ad b7 db bd
       0.23449358 -0.2032334 -0.08082255 -0.10728393
0000e0 56 b0 ca be 05 16 8c bd dd 3e 4c 3d 78 04 bf bc
       -0.3958766 -0.068401374 0.04986464 -0.02331756
0000f0 3f c2 5e 3e 6b d4 44 be 49 be 60 3d f5 51 84 be
       0.21753787 -0.19221656 0.05486897 -0.25843778
000100 d1 f7 54 bd cc 34 6e be 8a b5 b3 be 5b 7d 4f be
       -0.05199415 -0.23262328 -0.3509944 -0.20262663
000110 1f 3e 23 be e0 40 6f 3d c7 8c 38 be c7 b9 4e be
       -0.15941666 0.05841148 -0.18022452 -0.20188056
000120 f6 cc 00 be 26 bc 01 3f 37 f4 3c 3e d3 4e a6 be
       -0.12578186 0.50677717 0.18452536 -0.32482013
000130 e4 c9 0b 3e 43 67 fb be c2 25 73 be 98 29 7e 3e
       0.13651234 -0.4910222 -0.23744872 0.24820554
000140 56 83 a9 3d 27 14 3d 3e 30 a3 b6 be e3 c4 e9 3d
       0.082770035 0.18464719 -0.35671377 0.11414506
000150 69 40 82 3e 42 84 cf bd 15 e4 b2 be b3 90 a3 be
       0.25439766 -0.10132648 -0.34939638 -0.31946334
000160 96 95 1f bd 34 37 1e 3e f8 68 b9 bd ce e4 79 bd
       -0.038961016 0.15450746 -0.09053224 -0.06100922
000170 f2 9b cb 3c e8 91 cd 3d 09 40 ef be 9f e7 29 be
       0.024854634 0.10037595 -0.46728542 -0.16592263
000180 92 be af 3e 73 c7 7d bd fc fb a6 3d c8 e5 72 bd
       0.3432508 -0.061957788 0.08153531 -0.059301168
000190 fa 9f 19 3e a7 83 84 3d b5 b9 65 3e b1 ec 84 be
       0.15002432 0.06470423 0.22434123 -0.2596183
0001a0 de a8 a0 3c 35 f2 c2 be ec f5 11 be 67 ad 5a be
       0.019611772 -0.38075414 -0.14253968 -0.2135521
0001b0 01 32 c7 be 6e 73 a1 be 5d df 49 3d 31 ce e1 be
       -0.38905337 -0.31533378 0.04928528 -0.44102624
0001c0 ec e6 d9 3e 8b 61 81 be b7 09 f8 3d c6 9e 09 bd
       0.42558992 -0.25269732 0.12111228 -0.033598684
0001d0 04 e3 25 be 97 81 1c be ef b8 85 be 28 2d 82 3e
       -0.16199881 -0.1528381 -0.26117656 0.25425076
0001e0 b6 ff a6 bd eb 34 3b 3e a8 88 5f be 65 fb aa 3c
       -0.08154242 0.18281905 -0.21829474 0.020871827
0001f0 d0 d0 83 3e db 6a 30 bb 48 c2 4f bd 7b 72 62 3e
       0.2574525 -0.002691916 -0.05072239 0.22113983

shared_layers.2.weight f4 [64, 128]
000000 b9 a4 f5 3c 1a 1b e4 be 9d af f5 bd b7 bb a8 3e
       0.029985772 -0.44551927 -0.11996386 0.32955715
000010 9f f3 a2 3d 11 6c 91 3e 95 6a c2 3d 6d f3 ec 3e
       0.07956623 0.2840276 0.09492985 0.4627947
000020 ec 09 4a 3c 42 86 0b be c9 6a 1f bf 35 d0 db bd
       0.012331467 -0.13625434 -0.62272316 -0.10733072
000030 6e 4b a5 bc b9 41 82 bf 52 41 9b 3d 44 22 40 be
       -0.02017757 -1.0176307 0.07580818 -0.18763071
000040 13 e1 9d 3d b6 fd 42 be f3 38 95 bc 0a 47 81 3d
       0.07708945 -0.19042096 -0.018215632 0.06312378
000050 bb 31 8c 3e c4 cb 1b 3e d8 26 f0 bd 66 30 08 bf
       0.2738169 0.15214449 -0.11726159 -0.5319885
000060 48 80 e1 be 78 82 38 3e dc a7 84 be be e3 ae 3e
       -0.44043183 0.1801852 -0.25909317 0.34158128
000070 7a ef 8a be 4b 1e d6 3d 8d 4f 4d be 4d 26 f2 be
       -0.2713583 0.10454997 -0.20049877 -0.47294846
000080 e9 3d a1 be 4e 9f a5 3d 21 01 52 3e 1d 87 70 3e
       -0.31492546 0.080870256 0.20508243 0.23489042
000090 0b cc d4 be 9b 07 fc 3d d0 c0 cf bd 07 55 7d bf
       -0.41561922 0.12306138 -0.10144198 -0.98957866
0000a0 72 60 0b bf 05 d8 f4 be 4a 2c 3c bf 3f ab fe bd
       -0.5444404 -0.4782106 -0.7350508 -0.12435006
0000b0 7a 5a 9e 3e ed 86 07 be 47 c8 69 be 96 11 01 be
       0.30928403 -0.13235064 -0.22830306 -0.12604365
0000c0 79 be b0 3d 36 85 c3 be 88 a3 03 be 7d 6b 4a be
       0.0863008 -0.3818757 -0.12855351 -0.19767566
0000d0 a5 3b c8 3d d9 23 91 be 3c b7 0b bf bd f4 b4 be
       0.09777001 -0.28347662 -0.5457647 -0.3534297
0000e0 d3 f6 43 bd 96 45 a6 be c1 4e 44 bf 5b 64 2a bf
       -0.04784281 -0.32474965 -0.7668267 -0.6655938
0000f0 00 dc e1 bd 9e ce e6 be fc 67 5f 3e e3 db 25 bf
       -0.1102829 -0.4507951 0.2181701 -0.64788646
000100 3c 36 91 bf d0 b8 bc be 00 9a e5 3c 72 64 cd bd
       -1.1344676 -0.3685975 0.028027534 -0.10028924
000110 ae 75 c2 bc 0d 94 43 c0 29 ea b7 bd 3f 62 fe be
       -0.023737755 -3.0559113 -0.089802094 -0.4968433
000120 8a 09 4e bf bb 7b 55 be 91 82 a2 bd 77 56 8f be
       -0.80483305 -0.2084798 -0.0793506 -0.27995655
000130 68 48 5f be 7b b8 32 be dc 62 56 3e a4 15 d1 be
       -0.21804965 -0.17453186 0.2093615 -0.40836823
000140 24 ed 56 be 9f 19 2d 3e a5 e9 00 3d 9c 3b 40 3e
       -0.209889 0.16904305 0.03147282 0.18772739
000150 12 c8 01 be 2d 46 1f bf 16 e2 cf 3d a3 f4 22 3e
       -0.12673977 -0.62216455 0.10150544 0.15913634
000160 ec ba c4 be c1 3f 81 be 4f 0a b0 bf e7 6e c9 bc
       -0.3842386 -0.25243953 -1.3753146 -0.024589015
000170 2b ec 60 3e 76 d0 1e 3e 21 f9 ae 3e de de d9 3e
       0.21965091 0.15509209 0.34174445 0.42552847
000180 52 58 b0 be ab cf af 3e 54 e5 ce be 0f 4a 85 3c
       -0.34442383 0.34338126 -0.40409338 0.016270665
000190 c0 b7 85 bf 2e 17 17 3d 6d bc 2a bf 3e 0c 97 3d
       -1.0446701 0.03688734 -0.66693765 0.07375382
0001a0 e5 81 29 3e a4 ce 58 3e 13 14 fd be bd 44 27 be
       0.16553457 0.21172577 -0.49429378 -0.16334815
0001b0 83 97 36 bf 37 43 6f bc 47 62 89 be 15 cb d3 3d
       -0.7132494 -0.014603428 -0.26832792 0.10341469
0001c0 76 ce ff bd f9 01 5c be 39 7d 37 bf a7 99 14 be
       -0.12490551 -0.21485128 -0.7167545 -0.14511739
0001d0 bd 88 82 3e 66 e2 83 3e ab c2 98 bd cf d8 55 bf
       0.25494948 0.25758666 -0.07459005 -0.8353395
0001e0 da 46 98 be e6 f1 13 3e 4f 17 ee be 02 67 6a be
       -0.29741555 0.14447746 -0.46502158 -0.22890857
0001f0 e3 df 43 bf 84 74 a8 3e 6a aa 94 3d c9 35 2e bf
       -0.765135 0.32901394 0.072590664 -0.6805082
000200 c5 17 93 3e fb b8 89 be 81 77 bc 3d ad db 81 3d
       0.28729072 -0.2689894 0.09202481 0.06340728
000210 a1 43 7a 3e de c9 56 3e c9 6e 18 bf 3b da 0f 3e
       0.24439861 0.20975444 -0.59544045 0.14048092
000220 ba c7 89 be cb ee 03 bf f9 d6 cf 3e 83 4d 4f be
       -0.26910192 -0.51536244 0.405937 -0.20244412
000230 77 a9 93 be 33 b0 16 bf 4c ac df bd f3 4a 32 be
       -0.2884023 -0.5886261 -0.10921535 -0.17411403
000240 a6 a2 57 3c 69 f4 b2 3d 6a 27 dc 3d 63 ea e3 be
       0.013161337 0.08738024 0.10749705 -0.4451476
000250 2e 6f 17 be 5a 0e 48 3e 3c 63 c7 3e b1 90 17 3e
       -0.14788505 0.19536725 0.38942897 0.14801289
000260 03 e9 12 3e 5f a6 8b 3d 6b 8c 93 be 2c 73 e7 3d
       0.143467 0.06818842 -0.28818068 0.11301264
000270 82 a9 b4 3e 11 60 94 be 64 d9 80 bc 3e 18 fd bc
       0.35285574 -0.28979543 -0.01572866 -0.030895349
000280 52 d2 5a 3f 02 27 e7 bd d7 14 8d 3d ff 37 b5 be
       0.85477173 -0.11286737 0.068887405 -0.35394284
000290 69 4d 28 bd 7f 79 34 3d a4 78 81 3e 8d 2e 51 bd
       -0.04108945 0.04406118 0.25287354 -0.051069785
0002a0 27 62 01 3e b5 90 98 3b 0b 5a 1b bf 8d 6a 58 be
       0.12635098 0.0046559223 -0.6068427 -0.21134396
0002b0 64 51 9e 3d 0b 88 6b 3e 49 41 48 bd e0 22 9b 3d
       0.07730368 0.23001115 -0.048890386 0.07575011
0002c0 be 67 63 3e 26 3f 05 3f 5e 57 af 3e fc 7e 2e be
       0.22207543 0.5204948 0.34246343 -0.17040628
0002d0 10 30 53 3d b4 11 57 3c e7 e1 1a be 7b 97 5b bd
       0.051559508 0.013126779 -0.15125237 -0.05361126
0002e0 11 9b 8a be 6f a2 71 be 12 9d c0 3d 65 0b 8e 3e
       -0.2707143 -0.2359712 0.09404959 0.27743068
0002f0 bf 10 cf bd 7d 71 82 be 83 a1 30 3e a3 01 35 3e
       -0.10110616 -0.2547721 0.17249112 0.17676406
000300 47 96 8d bd fb 12 bd be 66 fa b3 3c 16 91 85 be
       -0.06913429 -0.36928543 0.021969985 -0.26087254
000310 68 fb b1 bc fe 70 17 bd f3 77 60 3e 6c bd 22 3e
       -0.021726325 -0.036972992 0.21920757 0.15892571
000320 0d 64 f8 3d 7a 84 b9 3d 9e 95 f0 3d 2a fa 70 3e
       0.12128458 0.09058471 0.11747287 0.2353293
000330 51 c7 dc 3d fe 92 2c bd e5 34 a3 3d 89 c7 6c be
       0.10780204 -0.04213237 0.07969073 -0.23122992
000340 e6 8b 51 3d 8d 0f ec 3d ba df 06 3d dc 82 67 3c
       0.05115881 0.115264036 0.032928206 0.01413032
000350 23 12 14 3e 8c 19 c5 be 74 3c af 3c 99 d8 17 be
       0.14460044 -0.38496053 0.021391131 -0.14828719
000360 53 8d b9 3d b9 39 b6 be b1 b7 dc bc 74 e8 a6 3d
       0.090601586 -0.35590914 -0.02694306 0.08149806
000370 d3 87 a9 3e 58 1f 09 3e 0d e8 d6 be 71 18 3f 3e
       0.33111438 0.13390863 -0.41973916 0.18661667
000380 ad ac 27 3e 7e de bb bd da 77 f6 bd 9f 48 e9 bd
       0.16374464 -0.091732964 -0.120345786 -0.113908045
000390 0e 10 85 3e 27 cc 79 3d b6 cc fa 3d 10 1c 85 be
       0.2598881 0.06098571 0.12246077 -0.25997972
0003a0 05 f5 2c 3f 1e 9c 79 3e fb 95 98 bc 68 c9 c7 3c
       0.6756137 0.2437596 -0.018626204 0.02438803
0003b0 bc 24 08 3e 81 e7 cf 3c 5b 7b 12 3e f3 01 af bd
       0.13295263 0.025378944 0.14304869 -0.08545294
0003c0 6d 46 d1 be c1 43 bf bd 76 5a f0 bc 35 28 a4 3d
       -0.40874043 -0.09339095 -0.02934001 0.080154814
0003d0 75 5c 22 3e 2c 76 f6 bd 9d 26 35 3e 5f 0a a2 be
       0.15855582 -0.12034258 0.17690511 -0.31648538
0003e0 cc e5 e8 bc fa af 24 3e 2d 28 e1 3c 91 ef 39 3d
       -0.028429888 0.16082755 0.027484978 0.045394484
0003f0 a0 c8 a7 be 12 5f 34 3e 30 3d b8 bc 20 31 08 3e
       -0.32770252 0.17614391 -0.022490114 0.1329999

shared_layers.2.bias f4 [64]
000000 1b d6 1c be de 38 45 3e c7 64 04 3e 58 69 e1 3c
       -0.1531605 0.19259974 0.12929069 0.027516052
000010 00 67 33 3e 26 bd 0a 3e 39 7e dc 3d aa d7 c8 bd
       0.1751976 0.13548717 0.107662626 -0.0980676
000020 89 2d 34 bd f7 5e 24 3b c2 dd 81 3c 1d 2e 05 be
       -0.04398874 0.0025081018 0.015852813 -0.13005872
000030 d5 ad 07 3e a4 6b 97 bc 5e 4f d9 bd bc f4 cf 3d
       0.13249905 -0.018483944 -0.10610841 0.10154101
000040 a3 86 98 be dd e8 1c 3e 2c 78 0a 3e eb 71 26 3d
       -0.2979022 0.15323205 0.13522404 0.040635984
000050 fa e4 85 bd 1d 9e 50 bd 1e 0f 03 bd 3f 7c 91 bc
       -0.065378144 -0.05093204 -0.03199684 -0.01775944
000060 fe d2 8e be 53 f3 02 3e 13 d1 ff bd d6 c7 70 be
       -0.2789535 0.12788133 -0.124910496 -0.23513731
000070 1a 7f 48 3e 6e bb fb bd f0 fd d1 3c e2 f0 bb 3d
       0.19579735 -0.12291609 0.025633782 0.09176804
000080 49 3d c2 bc eb 96 bb be c1 29 b9 bd 3a ea 7b b8
       -0.023710864 -0.3663858 -0.09041167 -6.0061204e-05
000090 3c 09 c5 3d 80 ce 7f bd 3f 17 9f be ad 35 f1 bd
       0.09620902 -0.062452793 -0.31072423 -0.11777816
0000a0 8d 73 3a bc 6b dd 56 be 4a d0 19 3e 85 7b 33 be
       -0.0113800885 -0.20982902 0.15020862 -0.17527588
0000b0 07 6b e5 3c 03 5f 1e 3d 8c 5e 61 3e d4 39 7d be
       0.028005136 0.03866483 0.22008723 -0.24729091
0000c0 f1 b6 f0 3c a1 e1 11 bc ea 17 43 be 22 3f dc bd
       0.029384108 -0.008903892 -0.19052091 -0.10754229
0000d0 58 74 e0 3d 2e e7 5b 3e 05 ea bd bd 48 8e 85 be
       0.10959691 0.21474907 -0.09273151 -0.26085114
0000e0 c9 bc 20 3e 3e fa 8f bc e7 c5 85 3e 5f 91 5a 3e
       0.15697016 -0.01757538 0.2612755 0.21344517
0000f0 5e e8 cd bc 39 c1 1b 3d dc b0 ac 3c ac 1f 96 bd
       -0.025135215 0.03802607 0.021080427 -0.0733026

actor_mu.weight f4 [2, 64]
000000 d0 fa 3c 3f 99 c0 bc be 70 12 fa be 26 80 2d be
       0.7382021 -0.3686569 -0.48842192 -0.16943416
000010 3b a1 80 be 2a 37 a2 be 5d ef aa 3e 3d ef 91 3e
       -0.2512301 -0.31682712 0.33385745 0.28502837
000020 04 34 9e 3e 64 9a ee 3e 32 c7 34 bc 17 32 c6 3e
       0.3089906 0.46602166 -0.01103382 0.3871009
000030 30 70 02 bf cd 7c 2f 3f bf e0 1e 3d 04 31 f0 be
       -0.50952435 0.68549806 0.038788553 -0.46912396
000040 20 88 03 3f bd 19 ca be 16 b7 96 be 76 cc fc bc
       0.51379585 -0.39472762 -0.29436558 -0.030859213
000050 a0 99 17 3e 8f 7b af bd 81 9d aa 3d c2 fe 72 bd
       0.14804697 -0.08568489 0.08330823 -0.059324987
000060 18 4a 14 bf 4c a8 7a 3e 2a b7 53 3e f7 3d 55 3e
       -0.5792556 0.24478263 0.2067534 0.20824419
000070 14 1e e8 be 5a 57 d9 3d 08 d4 98 3d a2 26 c6 bd
       -0.45335448 0.10612364 0.07462317 -0.096753374
000080 bd f7 5c 3e 0b 08 ac 3e cd 05 e1 bd d8 06 f1 3d
       0.2157888 0.33599886 -0.109874345 0.117688835
000090 dd ab 18 3f 64 c7 8e 3e a0 34 04 3e 80 77 70 3c
       0.5963724 0.27886498 0.129107 0.0146769285
0000a0 b9 01 45 be c3 a8 44 3e aa 7b f6 3e 36 30 d4 3e
       -0.19238938 0.19205002 0.48141223 0.41443032
0000b0 05 44 b3 bd 2f 30 4f be f0 db ac be d2 78 f4 bb
       -0.08753208 -0.20233224 -0.3376155 -0.007460692
0000c0 7b 41 7d bd 75 54 f7 be 6a ec 97 3e 04 61 99 be
       -0.061830025 -0.48306623 0.29672557 -0.2995683
0000d0 a7 22 f9 be e7 19 e1 be 78 8c fe bd d5 ce 09 3f
       -0.4865925 -0.43965074 -0.12429136 0.53831226
0000e0 4c 17 29 be db ac b9 bd 72 27 e6 be 1f b2 27 3f
       -0.16512793 -0.09066173 -0.4495197 0.65506166
0000f0 29 b5 18 be 13 94 9d be 55 cd 11 3d 6f 7f eb 3d
       -0.14912857 -0.30777034 0.03559621 0.114989154
000100 7b 75 38 bf f6 82 7b be 61 57 d2 bc a9 b0 e3 be
       -0.7205426 -0.24561676 -0.025676431 -0.44470719
000110 72 01 6a 3d ac b9 8c 3d e8 81 a0 3e 21 2e 92 3e
       0.057130285 0.068713516 0.3134911 0.2855082
000120 19 55 bf 3e 20 f6 0b be a4 e7 4f 3d 5f a9 33 3e
       0.37369612 -0.13668108 0.05075802 0.17545079
000130 ef b4 95 3c 11 dc ea bc 96 75 2f be 52 ac ab be
       0.018274752 -0.028669389 -0.17134699 -0.33529907
000140 83 9e 9f be 51 34 b3 3e 4e 89 2a 3e 85 5f 24 3e
       -0.31175622 0.35000852 0.1665394 0.16052063
000150 fd 22 0e bf 4d 89 2f 3d 61 bb 4c 3d 44 01 3a bc
       -0.5552214 0.04285555 0.049983386 -0.011352841
000160 ac 03 f9 3d d0 50 16 3f ee 33 9b be e9 0d f3 3e
       0.121589035 0.5871706 -0.30313057 0.4747155
000170 a4 b8 f5 bd 56 08 8c bd 5e 34 04 be c2 41 91 3e
       -0.11998108 -0.068375275 -0.12910601 0.28370482
000180 af 76 f4 3b 93 44 15 bf 72 2a f2 bc 46 47 37 bd
       0.0074604372 -0.5830776 -0.029561255 -0.044745706
000190 91 34 11 3f af 71 be 3e a0 a1 24 be e2 ac 0e bd
       0.56720835 0.3719611 -0.1607728 -0.034832843
0001a0 30 18 cf 3e 3e 11 1e 3e b5 df 14 be 94 14 48 3a
       0.4044814 0.15436265 -0.14538462 0.0007632461
0001b0 48 ca 2d 3c 62 d6 82 3c b9 ed a7 bd e2 c9 0d 3e
       0.01060731 0.015971366 -0.08199639 0.13846543
0001c0 2a 93 af bd b6 1a 9b bd 3f 53 0d 3e 7d b1 14 3e
       -0.08572991 -0.07573454 0.13801287 0.14520831
0001d0 5a 74 ba bd 4c a8 2a bd 4c 8a 9e 3d e7 b2 3d 3e
       -0.091042235 -0.041664407 0.07741222 0.18525277
0001e0 8f 83 3c 3f d6 b6 b9 bd 24 e8 79 be 27 6c 43 bc
       0.7363824 -0.09068076 -0.24404961 -0.011927641
0001f0 73 e2 05 3e a6 03 24 3e 20 1a 79 3d 54 77 bc 3d
       0.13074665 0.16017017 0.06081593 0.092024475

actor_mu.bias f4 [2]
000000 1a 77 9e be 19 0f 99 3c
       -0.30950242 0.018683957

critic.weight f4 [1, 64]
000000 7d 23 dc bc 9b 60 14 3b c4 52 1b 3a 95 eb 44 3a
       -0.02687239 0.002264059 0.0005925114 0.0007511911
000010 4b fc ef ba 1c 89 ee ba a0 dd ee 3b 37 3d 96 bc
       -0.0018309442 -0.0018198821 0.0072896034 -0.018339736
000020 f9 4d 2e bc 91 d1 80 3a f8 da 04 3e d1 ea 8d 3c
       -0.010638707 0.0009828081 0.12974155 0.017323883
000030 e2 6f d5 3a 89 fa d5 b9 11 6b 30 bc 3f b8 56 ba
       0.0016283954 -0.0004081319 -0.010767714 -0.0008190907
000040 da b7 de bb 8f bc 00 bb b9 b3 0b 3b 62 54 71 3d
       -0.006796819 -0.001964364 0.002131684 0.058918364
000050 84 b7 66 bb 14 ed c8 bd 5d 1d 25 3b 56 c5 42 3d
       -0.0035204599 -0.09810844 0.0025194504 0.047551475
000060 27 a7 43 bd 34 ad c4 bb 59 dc 35 ba de ff 60 bb
       -0.04776683 -0.0060020927 -0.00069374364 -0.0034332196
000070 6f ef d0 39 97 57 da 3b 81 f3 74 bd 95 f9 4e 3a
       0.00039851243 0.0066632736 -0.059802536 0.0007895467
000080 1c 1f 4d 3c b0 a4 f4 bc 54 49 55 bc d3 9b ce 3d
       0.012519624 -0.029863685 -0.013017971 0.10088315
000090 80 a6 48 3b 5b a2 e3 bc d7 7e 1b bb 9e ed 45 3c
       0.003061682 -0.027787378 -0.0023726725 0.012080578
0000a0 f2 f0 5c 3a 3f 47 b8 3c d6 64 be b9 29 29 ab bc
       0.00084282376 0.02249491 -0.00036314753 -0.02089365
0000b0 92 a4 d3 bc b6 bf 3b bb 1b 9c 8f ba 8a c9 b9 3d
       -0.02583531 -0.0028648204 -0.0010956557 0.09071644
0000c0 71 11 a6 3d 10 31 e1 3d 93 90 de 3c 02 98 02 ba
       0.081087954 0.10995686 0.027168548 -0.00049817574
0000d0 99 f3 ed ba 26 18 7b b8 d7 5e c2 3d 68 8e 3b 3d
       -0.0018154263 -5.9865553e-05 0.094907455 0.045790106
0000e0 4d 39 a4 b9 ef 17 25 bc bd b1 cc ba 3d cf d1 39
       -0.0003132321 -0.010076507 -0.0015616935 0.0004001799
0000f0 b4 07 99 3b a8 c0 b2 3a 95 41 03 3d 00 5b 76 3b
       0.0046701077 0.0013637738 0.032044966 0.0037590861
